# parameters
nc: 80  # number of classes
depth_multiple: 1.0  # model depth multiple
width_multiple: 1.0  # layer channel multiple

# anchors
anchors: 3

# YOLOv5 backbone
backbone:
  # [from, number, module, args]
  [ [ -1, 1, Conv, [ 32, 3, 1 ] ],  # 0-P1/1
    [ -1, 1, Conv, [ 64, 3, 2 ] ],  # 1-P2/2
    [ -1, 3, C3, [ 64 ] ],
    [ -1, 1, Conv, [ 128, 3, 2 ] ],  # 3-P3/4
    [ -1, 3, C3, [ 128 ] ],
    [ -1, 1, Conv, [ 256, 3, 2 ] ],  # 5-P4/8
    [ -1, 9, C3, [ 256 ] ],
    [ -1, 1, Conv, [ 512, 3, 2 ] ],  # 7-P5/16
    [ -1, 9, C3, [ 512 ] ],
    [ -1, 1, Conv, [ 768, 3, 2 ] ],  # 9-P6/32
    [ -1, 3, C3, [ 768 ] ],
    [ -1, 1, Conv, [ 1024, 3, 2 ] ],  # 11-P7/64
    [ -1, 3, C3, [ 1024, False ] ],  # 12
  ]

# YOLOv5 head
head:
  [ [ -1, 1, Conv, [ 768, 1, 1 ] ], # 13
    [ -1, 1, nn.Upsample, [ None, 2, 'nearest' ] ], # 14
    [ [ -1, 10 ], 1, Concat, [ 1 ] ],  # cat backbone P7
    [ -1, 3, C3, [ 768, False ] ],  # 16 (P7/64-small)

    [ -1, 1, Conv, [ 512, 1, 1 ] ],
    [ -1, 1, nn.Upsample, [ None, 2, 'nearest' ] ],
    [ [ -1, 8 ], 1, Concat, [ 1 ] ],  # cat backbone P6
    [ -1, 3, C3, [ 512, False ] ],  # 20 (P6/32-small)

    [ -1, 1, Conv, [ 256, 1, 1 ] ],
    [ -1, 1, nn.Upsample, [ None, 2, 'nearest' ] ],
    [ [ -1, 6 ], 1, Concat, [ 1 ] ],  # cat backbone P5
    [ -1, 3, C3, [ 256, False ] ],  # 24 (P5/16-small)W

    [ -1, 1, Conv, [ 256, 1, 1 ] ],
    [ -1, 1, nn.Upsample, [ None, 2, 'nearest' ] ],
    [ [ -1, 4 ], 1, Concat, [ 1 ] ],  # cat backbone P4
    [ -1, 3, C3, [ 256, False ] ],  # 28 (P4/8-small)

    [ [ 28, 24, 20, 16 ], 1, Detect, [ nc, anchors ] ],
  ]
